models/CNN_model.pth (torch, 35301 bytes, 10 tensors)

conv_block_1.0.weight f4 [10, 1, 3, 3]
00000000: c08b 6f3e acf0 763e eed7 93be c1a9 743e
00000010: eab9 0e3e c46a a63d 43b8 b7be eced 2c3e
00000020: 59d2 d53e c135 a3be 0a38 e03e 4d35 c4bd
00000030: 8d73 b83e d9d2 e33e c629 0a3d 4fab c8bc
00000040: 81bf d53e 4b7f b8bb 61c7 debe cd57 2cbe
00000050: 8f4c 403d 6141 1fbf 99a0 2abf 7f3d 673e
00000060: 75a2 41bf c208 21bf bf49 8bbd 3463 31bf
00000070: b737 80bf f134 1dbf 4589 973e bfb8 0bbf
00000080: 1d02 953e d860 643e b534 35bd 7b24 043f
00000090: 7c1d 1dbe 71d2 b33e 59fb 97bd 5089 7ebe
000000a0: 8154 bf3e 8bdd 28be a826 b2bd 9a40 be3e
000000b0: 0c7c 103e caf3 15be 198f 3d3e 1956 623d
000000c0: 74d0 2e3e 0c9b 4fbe 01fc a8be 578c 03be
000000d0: 5ee3 82be 89dd 8a3e 0a9b fb3d 95a5 b33d
000000e0: 5615 2bbd 8045 36bc 0c00 f63d 0d60 8abe
000000f0: 6233 a13d 54f1 cdbe 6b46 93bd 4907 04be
00000100: 46f3 3c3d 277b 15be c79e b23e 1558 96be
00000110: 88c6 a7be d2da 1dbe b8a1 c93e e305 3f3e
00000120: 3cbf 113f eea1 85be 3be4 f9be 3411 79be
00000130: a333 b8be 7fdf 3f3d d3a4 b03e 406c dd3e
00000140: f4a3 0cbe c667 68be eeee 333e 617f 0abe
00000150: 55ed 4d3e a838 a5bd 3c54 413e 33a2 84be
00000160: 538c 2cbe b848 ce3d
0.23393154 0.24115247 -0.2887568 0.23892881 0.13938108 0.08125833 -0.35882768 0.16887635
0.41762045 -0.31876948 0.43792754 -0.09580479 0.36025658 0.44496801 0.033731245 -0.024495749
0.41747668 -0.005630409 -0.4351149 -0.16830368 0.046948012 -0.62209135 -0.666513 0.22582053
-0.75638515 -0.6290399 -0.06801175 -0.69291997 -1.0017003 -0.6140891 0.29596916 -0.54578775
0.29103175 0.22302568 -0.04423972 0.51618165 -0.15343279 0.35121492 -0.07420988 -0.24857068
0.3736916 -0.16490762 -0.08698779 0.37158662 0.1410982 -0.1464378 0.18511619 0.05525789
0.17071706 -0.2027399 -0.33004764 -0.12846504 -0.25564092 0.27122143 0.12285431 0.08771817
-0.041768394 -0.0111249685 0.12011728 -0.27026406 0.078711286 -0.4022318 -0.071911655 -0.12893404
0.04613044 -0.1459776 0.34886762 -0.29364076 -0.32768655 -0.15415505 0.39381194 0.1865459
0.56932425 -0.26100105 -0.4880694 -0.24322969 -0.35976896 0.046844 0.3450075 0.4324665
-0.13734418 -0.22695836 0.17571613 -0.13525154 0.20110066 -0.08067447 0.18879789 -0.25904998
-0.16850404 0.10072464

conv_block_1.0.bias f4 [10]
00000000: ec4d e53c 5537 563d 6794 7e3e 7c55 073e
00000010: 21ec c73c c402 3fbe 2a22 4a3e 42d2 27bd
00000020: a0e2 4fbd ef2b a6be
0.027991258 0.052298862 0.24861299 0.13216203 0.024404587 -0.18653399 0.19739595 -0.040972
-0.050753236 -0.32455394

conv_block_1.2.weight f4 [10, 10, 3, 3]
00000000: 7ce2 a53d 246d e0ba 6384 9dbd 54d9 c8bd
00000010: c409 53be 8e13 7dbe 394f 94bd e39c 42be
00000020: 3b55 2fbe d6b2 9ebd b4c4 8dbc d462 e9bd
00000030: 0ff0 ecbd ed0d 96be 1adf 89be d561 8bbd
00000040: f000 26be 6c7c 73be e781 2fbd 8f3e 8c3c
00000050: a699 fd3d c1af c63d 7e64 7c3e c144 503e
00000060: 214c 77bd 0fbc 113d 189a d63d de2f 45be
00000070: f493 f3bc 2265 32be 662a e6bb 0f1b dabc
00000080: 1ba1 1fbe 9e30 053e 9c8f 693d 76f9 8a3d
00000090: 8ba0 1abe 9ae0 24be d822 87bd 27ff d5bd
000000a0: 49b7 63bd 7db4 58be 4c50 e73d f917 d3bd
000000b0: a61f 39bd 2db2 b63c 805e 5f3d dbff ac3d
000000c0: 2f5b c43d 7a49 abbd e27b e93c ff3c 38bd
000000d0: 742f 5cbc cf88 9dbd c9b0 253e 8d2e 95bd
000000e0: 80a9 e1bb 5c9e ff3d c277 a23d 889f 14bd
000000f0: e809 b23d 3f44 8f3c 69df 45bd 2126 b1bd
00000100: 383d 4b3d 6ee8 31bc e442 15bd 3c44 b53d
00000110: 264c 673c 2fb1 29bd dffe 37bd c1e3 01bc
00000120: 137a c23d d34b 93bc 68b2 2fbd c344 b2bc
00000130: da8a 68bd b855 733d 497a 143e d54d 95bd
00000140: 7eba ae3c 2f06 5f3d 5677 9c3c 9dc5 19bd
00000150: 0f5a 613d c6e4 623d 7775 213d d8bc 97bc
00000160: c4a8 e4bc 19b3 383c 761d d8bc e727 e2bc
00000170: 2146 a33d 5e5b aa3d e08e e1bb cfa1 a2bb
00000180: cba0 d1bb 5e7e 2dbc c739 403c b232 e13c
00000190: 07a2 a5bd 1b30 9bbc 074c ba3d 9481 583d
000001a0: 8666 473c 86ae bebd 6c98 9fbd 2432 d5bd
000001b0: ab5d 0fbd cd9e 083d 77a2 843d eebe 423d
000001c0: c56e c4bd 2cee 86bd 563b a1bc d663 cc3d
000001d0: 6995 473c 305c e2bb a06d 433d d02a 12bd
000001e0: 8ec5 89bd f62d a03d 33e2 4fbd b3e6 bbbc
000001f0: 2387 dabd 3e51 8e3d dc57 ac3d b5b2 583d
00000200: 2e0f 75bd e7dc fabd e80d bfbd c756 a63d
00000210: 0685 213d 4038 af3d f344 613d 38b1 da3c
00000220: 0a79 96ba db23 a4bd fecb b8bd 06db c9bd
00000230: 78ce 313d c151 53bd 1a87 adbc 447a 78bd
00000240: 0b6b d4bc fd68 a0bd 7455 8ebd 10dd 153d
00000250: de6c d8bc 2df0 933d 7a46 dabc 1c5b a9bd
00000260: b66c a0bc 6f7a 45bd fa6c 00bd 90f1 cbbd
00000270: 7194 7c3d ad57 98bd 1ac5 5d3d c1f3 463d
00000280: 33d7 a03d ace4 a5bd 9688 a83d 9299 40bd
00000290: 6e0e 2d3d b1c0 c33d 0404 86bc 05e9 24bb
000002a0: 6e86 d7bc b130 b3bd be03 663d 4f4e d6bd
000002b0: 6cfe 853d f085 a13d 5f1a cc3d 74c6 cbbc
000002c0: ac68 b1bd c024 c23c 8f83 6e3d d6db d6bd
000002d0: 59e2 b8bc 5d44 82bd 44a2 c2bc 26c8 26bd
000002e0: 200b 83bc 5aa8 c5bc bcc2 acbd 6c59 e03d
000002f0: 59c4 f23d 9bbb 93bc 507f 75bc e88c 7bbd
00000300: 3b8c cabd e7c8 a3bd d6dd 823d a793 92bc
00000310: 08aa 84bc af75 483d bf73 60bd 101c 85bd
00000320: 7e2b a1bc 67c3 f1bc cd5d 4fbd 6fca 72bd
00000330: 2f1b d1bd 2f8c 913d 1992 2ebd 9735 afba
00000340: ec37 72bd ed83 81bc 4951 d43d ffc0 973d
00000350: ea91 a5bd 1cca 953d ac18 d53d d9cd 033d
00000360: 28d3 8b3d fa4d d63d 28e6 08bd 5926 0b3d
00000370: 3339 4ebd 919e 4abb 23d2 c73d 6e30 973d
00000380: c2f8 2abd a3f9 acbd 9753 93bd 3e2d d5bd
00000390: da2c a6bd e4bc d3bc 9dc7 913d 8fd7 903c
000003a0: 5b81 a4bd ba1a adbd dc0f c83c 8036 cfbd
000003b0: 38d3 28bd c3f0 453d a241 6cbd f7ff c3bc
000003c0: e434 e3bc daff 16bd fe4c 68bd 50fe bfbd
000003d0: e318 afbd 43d4 6bbd 3fba cc3d c142 3bbd
000003e0: 893b 85bd 91c7 ed3c d94e b73c d534 773d
000003f0: 9187 a03d ca75 713d 953d d7bd 7598 873c
0.08099839 -0.001712237 -0.076912664 -0.09807077 -0.20609194 -0.24714491 -0.07241673 -0.1900516
-0.17122357 -0.07748954 -0.01730571 -0.11395803 -0.11569225 -0.293075 -0.26928025 -0.06805769
-0.16211295 -0.23777932 -0.042848494 0.017119674 0.12382822 0.09701491 0.2464771 0.20338728
-0.060375337 0.035579737 0.1047861 -0.19256541 -0.029733635 -0.17421392 -0.0070240973 -0.02662423
-0.155888 0.13006827 0.057021722 0.06785862 -0.15100305 -0.16101304 -0.06598443 -0.10449057
-0.055594716 -0.21162601 0.11294612 -0.10307307 -0.045196198 0.022301758 0.05453348 0.08447238
0.095877044 -0.08363624 0.028501455 -0.044980045 -0.013439048 -0.0769211 0.1618072 -0.072842695
-0.006886661 0.124813765 0.07932998 -0.036284953 0.08693296 0.017488597 -0.048308764 -0.08649851
0.04961893 -0.010858638 -0.036440745 0.08850905 0.014117276 -0.04142874 -0.0449208 -0.007927836
0.0949594 -0.017980492 -0.04289475 -0.021761304 -0.056773044 0.05940792 0.14499773 -0.07290236
0.02132916 0.054449257 0.019099873 -0.037541974 0.055017527 0.055393957 0.039418664 -0.018522665
-0.027912505 0.011273169 -0.026381236 -0.027606918 0.079723604 0.08318208 -0.006883487 -0.0049631367
-0.006397342 -0.01058921 0.011732525 0.027489994 -0.08087545 -0.018943837 0.09096532 0.05285795
0.01217044 -0.093106315 -0.07792744 -0.10409954 -0.035001438 0.03335457 0.064763 0.047545366
-0.0959144 -0.065883964 -0.019681614 0.0997998 0.012181618 -0.0069079623 0.04771197 -0.03568536
-0.06727134 0.07821266 -0.05075283 -0.022937154 -0.106703065 0.069490895 0.08415195 0.052904803
-0.05982893 -0.12249165 -0.09328824 0.0812202 0.0394335 0.08555651 0.054997396 0.026695833
-0.0011480164 -0.080146514 -0.090232834 -0.098562285 0.043409795 -0.05159164 -0.021182586 -0.060663477
-0.025929948 -0.07832525 -0.06949893 0.036587775 -0.0264191 0.07223544 -0.026644934 -0.08269331
-0.019583087 -0.048212465 -0.03135393 -0.09958184 0.061665002 -0.07438598 0.05414305 0.048572306
0.07853546 -0.08100256 0.08229177 -0.047021456 0.04225009 0.09558237 -0.016359337 -0.0025163305
-0.026309218 -0.087495215 0.056155913 -0.10464155 0.06542668 0.07886875 0.099659674 -0.024874903
-0.08662543 0.023699164 0.058230933 -0.10491149 -0.022568868 -0.063606955 -0.023759015 -0.04071822
-0.015996516 -0.024128128 -0.0843558 0.10954556 0.118538566 -0.018033793 -0.014983967 -0.061413676
-0.09890028 -0.079973035 0.06389968 -0.017892672 -0.016194358 0.048940357 -0.054797884 -0.06499493
-0.019674059 -0.02951212 -0.050626565 -0.059275087 -0.10210263 0.07106816 -0.0426198 -0.0013367411
-0.059135363 -0.015809977 0.103670664 0.07409858 -0.080844715 0.0731394 0.104050964 0.032178733
0.06827384 0.104640916 -0.03342262 0.033972118 -0.05034752 -0.0030917267 0.09756877 0.07382284
-0.04174114 -0.08446052 -0.07193678 -0.1040902 -0.081140235 -0.025846906 0.07118151 0.017680911
-0.08032485 -0.08452363 0.024421625 -0.10117817 -0.04121706 0.04832531 -0.05767978 -0.023925764
-0.027735181 -0.036865093 -0.05671405 -0.09374678 -0.08549669 -0.057575475 0.09996461 -0.04571796
-0.06505496 0.029025825 0.022376465 0.06035312 0.07838357 0.058950223 -0.10509793 0.01655219

conv_block_1.2.bias f4 [10]
00000000: 3f76 d33e 213d 01bd 5956 83bd d9dd c63e
00000010: 9e94 ddbd 4510 a3bc 12a9 073e 8ae3 c8bd
00000020: 6d53 863e 8bb0 303d
0.41301152 -0.031552438 -0.06412954 0.3884113 -0.10819362 -0.019905219 0.13248089 -0.09809025
0.26235524 0.043137114

conv_block_2.0.weight f4 [10, 10, 3, 3]
00000000: b1dd 32bd 7686 6bbe 4bf7 9bbd caf7 cbbd
00000010: 3879 d1bd ce16 0a3e e4ac 9dbd 55e2 073e
00000020: 8f4b 443e dbe7 743d badc c5bd 4c49 1cbd
00000030: 0250 b2bd c15e 85bd 7f8b 783d bf39 f4bb
00000040: e4bf 423d 67ec 74bd 1402 7b3c 4838 8cbd
00000050: f85a 683d 0f1b 53bd e4be e7bc 821f c0bd
00000060: 4724 033c 3ecf d63d 0cce 5e3d d01b 8dbe
00000070: 5dd2 193e e69b 89bd d95b 03be 1b4b 673e
00000080: b009 5cbd 69e5 5c3d 14cd 9fbe cbd5 5cbe
00000090: b77b 883c c067 2c3d 4c2b 843c b1e4 44bd
000000a0: f30c eb3d 0385 9dbc 1f8d 76bd ccd4 17bd
000000b0: aa8d ca3d 622c a7bd 99b4 dabd c3be 93bd
000000c0: 1f95 843c ae38 e6bc 3f4f 3dbd 1e39 7f3e
000000d0: fbe1 873e 7584 fd3d 7d1a 89be 96b5 7e3e
000000e0: 49b8 06be cce2 e63d 363b 763e 7113 493e
000000f0: 8dc2 f73e d187 583d 0fff 76bb 84f5 b23d
00000100: a590 123e cf2b 8dbc 5931 8c3b aac2 673e
00000110: 439e b5bc 0a3a e23d 02d4 9fbc 5d81 ab3c
00000120: a826 96be 725e dab9 70be 7abd 2788 8a3d
00000130: 04ee 853e 6fad 313d 81d3 fabb cac8 0bbe
00000140: 1159 a9bd 003f 023e b331 a73c a916 263e
00000150: 32c8 b53c 683b e03d c23c 893d eb39 9dbb
00000160: e05d fd3d d2c7 323e 6039 26bd 0323 93be
00000170: ee7a 36be 9888 123e 3949 8dbe 8c53 03bd
00000180: 688e f73d e78e 1e3e cf1b 81bc b42a 193d
00000190: c6ca 3fbd c505 ddbd cc7d 75bd 8fc7 b33d
000001a0: e221 babc 3efd f23c da3d 45bd 4908 903d
000001b0: 4201 d53d 3580 ac3d 4fdf 56bc 2f71 c7bd
000001c0: 0c31 b8bb 9eb2 8fbd 7f41 b93d eb62 cebd
000001d0: 9c8a 523d 018c 43be f2c6 6b3e 4129 913e
000001e0: e763 80be 822a 6a3f 4b7c b73e 6825 6bbf
000001f0: 611e 1dbe 0013 4bbd bf21 3b3b ee19 d33d
00000200: 4f53 abbd 55e1 47bd 1a1c bf3c 62e3 cdbb
00000210: 6e24 9a3c 6e9f ddbd a6e7 2abd 98db 22be
00000220: 2cc0 83be 929b f1bc ad60 de3d 0ab6 1e3e
00000230: 8d36 de3c b54c 833e d568 2c3e 5cdb adbb
00000240: 013c 1bbf 1874 a93d 5b7c 633e e8c6 0bbf
00000250: aec2 ba3e debd ca3e c444 8dbe 7383 d6bb
00000260: 6b7e b5bd 280b 2fbd 30d1 c8be a7c9 20b9
00000270: 184d 8bbe f73e babd bcad 0bbe 5c07 73be
00000280: 68f8 06be 83df 6bbe 3ac6 e6be 39e3 3fbd
00000290: b8a0 e63e c298 f5bd c060 bf3e 4957 dc3e
000002a0: e14c c2be c4ac 0fbe ad4f fabd 4d65 6f3e
000002b0: cb0b c3bb 8113 58be bac1 6d3e 5361 053e
000002c0: 1c64 4fbe b20a 36be 4665 8e3d c2eb 013e
000002d0: 2f51 d0bc 1cef 7e3d a87b 273d 4786 1dbd
000002e0: 205a ccbd 0235 bbbd c55d 17bd 5c67 0bbd
000002f0: f2a7 09bd 7a03 d1bc a532 57bd e3bf 0abd
00000300: 1b2f 1cbd f237 d53d 1583 21bd d930 9cbd
00000310: 9a67 313d 4d81 b4bb dc9a a63d 4998 8a3d
00000320: 10df c73d b8a0 a0bd c4c3 893d 62b5 b03d
00000330: 1fa2 57bd 0d89 c03d cc48 9f3d 82cf 8cbd
00000340: 2450 3a3d cb2f 993c 7ec9 2abe dd6c 393d
00000350: 6de7 9b3d 862e 23be f923 ca3c 1bc4 acbd
00000360: eb12 ae3d 9790 cf3d 9c03 913c 3b57 83bd
00000370: 1824 813d ee0d 853c cad6 7c3c 4679 db3c
00000380: 7cc8 823d 2c93 ddbc 0f5a b4bc f93e 0a3d
00000390: 2e29 75bc e412 9a3d 2907 2fbd 6f54 eebc
000003a0: 1c3c 57bc 9e76 d8bc 22a8 ac3d 364c 02bd
000003b0: 1d50 99bd d399 53bb 8767 80bd 53ec 683d
000003c0: 5c33 b2bd b1ba 1ebe a010 c9bc e273 8f3a
000003d0: 930a 27bd 8eda dd3d 4946 95bc 4e00 9a3d
000003e0: e781 143d 3951 01be ea4c 0b3c 6d77 933d
000003f0: 6024 d7bd 3a26 dfbd 175a 253e 6a79 1f3d
-0.043668453 -0.23000512 -0.07615527 -0.099593714 -0.10228199 0.13485262 -0.07698992 0.13269933
0.19169448 0.059791427 -0.09661241 -0.03815584 -0.087066665 -0.065122135 0.06067991 -0.007453173
0.047546282 -0.059795763 0.01532032 -0.06846672 0.05672738 -0.051539477 -0.028289266 -0.0938101
0.008004255 0.10488747 0.05439572 -0.27560282 0.15021653 -0.067191884 -0.12828006 0.22587244
-0.053720176 0.05392972 -0.3121115 -0.2156593 0.016660554 0.04209113 0.016133927 -0.04806966
0.11477079 -0.019228464 -0.060193177 -0.037068173 0.098903015 -0.08162762 -0.106789775 -0.07214119
0.016184388 -0.028103199 -0.046218153 0.24924132 0.26539597 0.1237878 -0.2677802 0.24873957
-0.13156237 0.11273727 0.24046025 0.19636323 0.48390618 0.0528639 -0.0037688648 0.08738235
0.1431299 -0.017232804 0.0042783436 0.22632852 -0.022170192 0.11046226 -0.019510273 0.020935709
-0.29326367 -0.00041650567 -0.06121677 0.0676425 0.26158154 0.04337829 -0.0076546078 -0.13650814
-0.08268941 0.12719345 0.02040944 0.16219582 0.022190187 0.10948831 0.06701042 -0.004798164
0.12371421 0.17459038 -0.04058206 -0.2873765 -0.17820331 0.14309919 -0.27594927 -0.0320621
0.12087709 0.154842 -0.01576033 0.03739424 -0.04682424 -0.10792116 -0.059934422 0.08778297
-0.022721235 0.02966177 -0.04815469 0.0703283 0.104006305 0.08422891 -0.013114764 -0.09738385
-0.005621081 -0.070164904 0.090456955 -0.10077461 0.05140172 -0.19096376 0.2302511 0.28351787
-0.2507622 0.9147111 0.35837016 -0.9185395 -0.1534362 -0.049578667 0.002855405 0.1030768
-0.08365499 -0.048798878 0.02332883 -0.0062832097 0.0188162 -0.108214244 -0.041724823 -0.15904081
-0.25732553 -0.029493127 0.10858283 0.1549913 0.027125621 0.2564446 0.16836865 -0.0053056907
-0.60638434 0.08274096 0.22215407 -0.5460038 0.36476654 0.39597982 -0.27591527 -0.0065464317
-0.08862003 -0.04273525 -0.39222097 -0.0001533391 -0.27207255 -0.09094041 -0.13640493 -0.23733276
-0.13180697 -0.23034482 -0.4507311 -0.046847556 0.45044494 -0.11992027 0.37378502 0.43035343
-0.3794928 -0.14030749 -0.12222228 0.23378487 -0.0059523336 -0.2110119 0.23218432 0.13025407
-0.20253032 -0.17777517 0.0695291 0.1268759 -0.025429336 0.06223975 0.040889412 -0.038458135
-0.099781275 -0.0914097 -0.03695466 -0.034034118 -0.03360743 -0.025514353 -0.052538533 -0.033874404
-0.03813086 0.10411061 -0.03943165 -0.076265045 0.043311693 -0.005508578 0.08135006 0.06767327
0.09759343 -0.07843155 0.067267925 0.08628346 -0.052644845 0.0940114 0.07777557 -0.068755165
0.045486584 0.018699547 -0.16678426 0.045269836 0.076125 -0.15935716 0.024675356 -0.08435842
0.08499702 0.10135 0.017701916 -0.06413122 0.063057125 0.016241994 0.015432069 0.026791226
0.063858956 -0.027047716 -0.0220156 0.03375146 -0.014963431 0.07523134 -0.042731438 -0.029092995
-0.01313689 -0.026423749 0.08430506 -0.03181096 -0.074859835 -0.0032287731 -0.06269746 0.056866
-0.08701202 -0.15500905 -0.02454406 0.001094457 -0.04078157 0.108327016 -0.018221991 0.07519589
0.036256697 -0.1262864 0.008502224 0.07200513 -0.10504985 -0.10895963 0.16147648 0.03893415

conv_block_2.0.bias f4 [10]
00000000: ce1e 79be 8bbf 473e 422a 67bd 63df 18be
00000010: 14fd 64bc b119 47bc a443 6f3e 63cf dc3e
00000020: 6f9e 2c3f 0b50 91bd
-0.24328157 0.19506662 -0.056436785 -0.14928965 -0.013976354 -0.012152121 0.23365647 0.43126974
0.6742925 -0.07095345

conv_block_2.2.weight f4 [10, 10, 3, 3]
00000000: 103f 22be 2ec4 a5bd af0d 14be ff85 c1bc
00000010: a64d 63bc e4c6 803d f48b d13d 28b4 36be
00000020: 72ad 0a3e df0b 3abe b546 aebe f86b 2abe
00000030: 0ed0 1fbe 25b4 2fbc 9d01 ebbe 90c5 bb3e
00000040: 7d2e 5b3e 7f8f 49bf 8f77 87bd c228 303b
00000050: b3df 933d a746 53be ccc7 913d c2db 533c
00000060: 6c75 81bd 7144 b43d 169d dabd 6cc1 483e
00000070: 6d05 1b3e 50ff c8bd ba31 bcbc 1806 a6bc
00000080: 0a9f 26be 6577 1ebd 992a 0a3d e47d d9bd
00000090: 66ae d3bc 83c1 203d a8b8 0f3d 3129 04bc
000000a0: ab50 e6bc 6695 3bbd 441e 3bbd 44dc 29bd
000000b0: d3a8 22be 47a8 43bd 64c2 36bd 173b e33d
000000c0: c131 a93c ac86 243d f506 7f3d 7351 0b3c
000000d0: 2638 35bd 6f83 a7bd 4b3c 6bbe 9145 c13d
000000e0: 122e 8ebe 3e29 b9be 8372 673d 467e 793e
000000f0: 2405 7bbe 2c94 643e 9e6e 723e 205d b93e
00000100: 7c2c 5f3d 44af 02bc 68eb 463c 42c9 6bbc
00000110: 01ef 063d b2b0 c8bd 7297 3abe 20ab 92bd
00000120: baad a93e 9b8b 1bbe 35f1 623d c0af 233d
00000130: 445b d0be 1241 633e 40fa b5be 5bdb 04bf
00000140: 9295 60be 2fd5 60bd 75cf 363d 9318 9bbd
00000150: 22b5 8e3d bb0f 0ebd 384f 9abd 5714 a43d
00000160: e897 d1bc 7c27 b5bd 82a6 bf3d 4c25 a43d
00000170: aacc 86bd e69a a03d 2367 293e 6589 babd
00000180: 7d80 e93e 1799 473d 6813 553d 636f 023d
00000190: 66b6 aa3e 1923 83be 49a4 30be 4b52 9cbe
000001a0: 9574 c73e acaf 25be 5285 38bf 250b 343e
000001b0: d918 20bd 7923 85bd a75c ee3d b99d 4b3d
000001c0: 97c7 12be 87ce 23ba 65f8 41bd 78bf 30be
000001d0: 92b5 fcbc 36db 4abd 6f07 84bd 3828 453d
000001e0: 6b8f 823e 92a4 a4be fdf6 61be 986c 483e
000001f0: e4d0 e8bd aa5e c4bd 796a f1bb 2e4b 4fbb
00000200: 9dcb acbb e4b9 5cbc 8856 debd e407 9b3b
00000210: e1a9 1a3d 88a7 09be aa18 22be 3f15 103c
00000220: 1c71 be3d 9112 ec3d b6a4 5abc 5f30 92bd
00000230: 3542 a03d ca21 763d 9f0d 443d 1506 ff3c
00000240: 6f1e 14be 2998 26be c4bd 923e 96cd 4bbe
00000250: 1589 d6bd 9252 4f3e 7a00 743d fa40 8dbd
00000260: 5ee8 c83c a77f abbd ba8f 81be b620 dd3d
00000270: 83d0 b53d 138d bebe d567 cd3d 41ea 193e
00000280: 0cac e6be 3c06 883e 6ddf 82be b01e eebd
00000290: cbcd a2be 684e 533e ceff 7f3e f013 f7be
000002a0: 2b7e 853e 1f84 c73d e68f 7cbe 5617 c3bd
000002b0: b2b7 e3bc 27b1 e33d 0ec5 c1bd 6ee1 39be
000002c0: 03cd fb3b 3dec b63b ca84 c3bd 1304 cebd
000002d0: babe 2c3d 92d1 8abd 51c8 84bd e25f 05be
000002e0: 299a 36bd 5643 d5be 99a4 a83c 3e3c 213e
000002f0: 6462 e7bd d0eb 3ebf 7bae 25bd 42b5 d8be
00000300: 6d4f 9dbe 095f 0a3f 948f 1fbe 47c5 7ebe
00000310: 2388 7a3e e8bc 913e 5a95 74bd 0683 a1bd
00000320: fe16 61bb 39f3 4a3b 5d8b 3fbc f6b2 b83d
00000330: 4aa6 f63b 664b f9bd 46e6 fc3d 6caa 04bf
00000340: 2f95 2f3e 73ef 1c3e 8ef8 b83d 5930 2c3e
00000350: 3b2d 5ebd cca8 d03d 66d8 b9bd dff8 edbd
00000360: cc41 8c3d 8223 debd 0ec6 3cbd 7200 fabc
00000370: 62be 7d3d bfef a4bd 696e a73d a942 763d
00000380: 6c85 983d e3b1 b03d 9e96 72bc 912b 0dbe
00000390: fc64 a53d 3cf2 45bc 504b 10bd 0a7f 04bd
000003a0: 5789 38bc 3904 76bd 688f 08bf ee31 84be
000003b0: 8b12 863e 55e7 86be f4b5 03be 8487 fcbd
000003c0: 4893 79bd 4157 df3d b4ef 433e f63e 45be
000003d0: d654 003f fc54 d73d ef9c 21be c0fc e43d
000003e0: 5641 cabd 64c9 b73c ef9b 44be 77c8 12be
000003f0: f409 05be e694 5fbe 00e9 55bc 6ddb 1cbd
-0.15844369 -0.08094059 -0.14458345 -0.023623465 -0.013873493 0.062879354 0.10231772 -0.17842162
0.13542727 -0.18168591 -0.3403832 -0.1664275 -0.1560671 -0.010724102 -0.45899668 0.36674166
0.21404453 -0.7873458 -0.06614601 0.0026879762 0.072204016 -0.2063242 0.07118186 0.012930812
-0.063212246 0.08802117 -0.10674493 0.19605035 0.15138789 -0.09814322 -0.02297293 -0.020266578
-0.16271606 -0.038688082 0.03373203 -0.10619715 -0.025839996 0.039247047 0.03508821 -0.008066461
-0.028114637 -0.045796774 -0.04568316 -0.041469827 -0.15884714 -0.047767904 -0.04461898 0.11095255
0.020653607 0.040167496 0.062262494 0.008503306 -0.044243 -0.08179366 -0.22972219 0.09437097
-0.27769524 -0.36164278 0.05650569 0.24364576 -0.2451368 0.22322148 0.2367501 0.3620386
0.054485783 -0.007976357 0.012141086 -0.014391245 0.032942776 -0.09799327 -0.18221834 -0.07161546
0.33140355 -0.15189974 0.055405814 0.03996253 -0.4069463 0.22192791 -0.35542488 -0.5189721
-0.21932057 -0.054890808 0.04463144 -0.075730465 0.06968142 -0.03468297 -0.07534641 0.08011692
-0.02558513 -0.08845422 0.09357931 0.08014926 -0.06582005 0.078420445 0.1654325 -0.09108237
0.4560584 0.048729982 0.05202046 0.031844508 0.33342284 -0.25612715 -0.1725017 -0.30531535
0.38956133 -0.16180295 -0.7207843 0.17582376 -0.039086197 -0.065009065 0.11638766 0.049710963
-0.1433395 -0.00062487315 -0.047356028 -0.1726054 -0.030848298 -0.049525462 -0.0644673 0.04813406
0.25500044 -0.32156807 -0.22066875 0.19572675 -0.11367968 -0.09588368 -0.007367429 -0.0031630504
-0.005273296 -0.013472054 -0.10856348 0.0047311652 0.037759665 -0.13442814 -0.15829721 0.008794128
0.09298918 0.11526979 -0.013344934 -0.07138132 0.07825128 0.060090818 0.047864553 0.03113083
-0.14464734 -0.16268982 0.28660405 -0.19902644 -0.10475365 0.20246342 0.059570767 -0.06897159
0.024524864 -0.08373957 -0.25304967 0.10797255 0.08877661 -0.37217006 0.1002957 0.15030767
-0.45053136 0.26567256 -0.25561085 -0.11626947 -0.31797633 0.20635378 0.24999925 -0.482574
0.2607282 0.09741997 -0.24664268 -0.09525935 -0.027797554 0.111177735 -0.09461413 -0.18152401
0.0076843514 0.005582361 -0.09546812 -0.10059371 0.04217408 -0.067782536 -0.0648352 -0.13024858
-0.044580612 -0.41652936 0.020586299 0.15745637 -0.112980634 -0.7457857 -0.0404496 -0.4232579
-0.3072466 0.5405126 -0.15582114 -0.24879943 0.24465995 0.28464437 -0.059712745 -0.07886319
-0.003434598 0.0030967726 -0.011690942 0.09018509 0.0075271474 -0.12172584 0.12348609 -0.51822543
0.17146753 0.15325718 0.09031783 0.16815318 -0.054242354 0.101884454 -0.09074478 -0.11619734
0.06848487 -0.10846616 -0.046087317 -0.03051779 0.06194914 -0.080535404 0.08175356 0.060122166
0.07447323 0.08627679 -0.014806418 -0.1378615 0.08075902 -0.012081679 -0.035228074 -0.032347716
-0.011263213 -0.06006262 -0.5334382 -0.25819343 0.26186022 -0.26348367 -0.12862378 -0.12330535
-0.060931474 0.10905314 0.19134408 -0.19262299 0.5012945 0.10514256 -0.15782522 0.11181021
-0.09875743 0.022434898 -0.19200109 -0.14334284 -0.12992078 -0.21834144 -0.01305604 -0.0382952

conv_block_2.2.bias f4 [10]
00000000: 1e6f 873e cd9c 64be 97e1 903e de0c 593d
00000010: cd84 63be d110 bd3e 3ac7 9f3d d0d5 dabd
00000020: 03f2 943c 8e80 42be
0.26451963 -0.2232544 0.2829711 0.052990787 -0.22218628 0.36926892 0.07801671 -0.10685313
0.018181806 -0.18994352

classifier.1.weight f4 [10, 490]
00000000: 3e95 23bc ac58 93bc 5bbb ad3d 8626 2bbe
00000010: 602a bfbc 4251 8ebd 0e73 483d 0640 913d
00000020: 3797 613e 1087 ca3d 59a8 44be 1225 5e3d
00000030: f118 f03d b0ec f93d 66c7 573d 6318 c33d
00000040: f5e9 173e 51e6 03be 31d5 c23d 66c3 693d
00000050: 359e 8bbd 82d9 24bc c5d6 ca3d a0a4 70bb
00000060: a824 2ebd 97c4 733d e8b0 2ebd 48fc ecbc
00000070: a951 9fbd 226c 86bc 726c 2dbd be9e 40bd
00000080: d854 363e 9f00 bfbd dffa 6db9 0382 bd3c
00000090: ce5d 32be 2dd0 f2b9 56a9 f1bd 692a 84bd
000000a0: fc87 623e 368f aabd 972b 783d fba3 fbbd
000000b0: c452 3dbe 236a 87bc f7bf a5bc 52c6 b73e
000000c0: c25a 9abd 6e2c 243e 9d3a 053e 3928 33be
000000d0: b6a4 edbd 34ae 933d 7601 29bd 7a9c f23d
000000e0: c0c7 c43d 52da f8bc 9c2a 89be 56dd e5bc
000000f0: e8ec f63c 719e 843c 8242 f03b af94 003d
00000100: a0a8 313e de44 fdbd dfc5 813c bcbf 91bd
00000110: 6e67 433e c1e3 923d 7c11 b53d 3bb0 16bc
00000120: 5817 753c 59ae adbd 15db adbc 7987 6c3e
00000130: 77ce 0dbd f62e 3e3d 059d efbc 4c93 5abd
00000140: d99e eabd c248 b83d 3eed 253e 1672 24be
00000150: dc19 1dbe 175f de3c e058 0cbe 9ded edbd
00000160: a36d adbc f467 39bd f78f 263c a11b 7dbd
00000170: ad8e 5ebd 1603 283e 1c5f e1bc 2c68 e6bd
00000180: f542 27bd 3373 503d 69e9 2a3d 12c7 c33c
00000190: f4e7 dc3d 9f4b 6c3d dd66 483e 7757 de3d
000001a0: 47d3 6ebc b4d0 553e d2f2 dd3d 8911 1eba
000001b0: 9725 d83c c101 dc3c 6626 0f3e d2bd b53c
000001c0: a912 563d 1221 3f3e 91df 9b3e ecdc 88bd
000001d0: d493 363d f6f9 65bd 2e3d 88bc 0f39 a3bd
000001e0: ca56 0fbe d618 ff3c ed42 24be 6dae d5bd
000001f0: df12 f73d 4dd2 8cbd e06b 49be 8c4d b1bb
00000200: 5b5e a93d 0095 95bd 1050 09be e651 a93a
00000210: ed9a 773d 767e 83bd be6d da3d e7d1 083c
00000220: fda1 00be 3355 18be aad5 d9bd a94d 2b3d
00000230: b97f 4bbd b13f d73d e635 7d3c 5c0a debd
00000240: c7e1 38bd b0e0 17be 62bf f8bd b868 323e
00000250: 29a4 bdbd 2a38 68bd 718e 81bc 6f53 983d
00000260: 9696 553d 5eaf 27bd c76d 19be f488 95bd
00000270: 72c5 b0bd 208e 883b c973 edbb fd1c 15be
00000280: 0e22 00be d185 29be 03c2 93bd 20dd 57bd
00000290: c4d4 723d 86f9 59bd 5337 a3bd 15ac 2d3d
000002a0: efd8 673c bf16 b53d 10e5 0a3b 01db 1e3d
000002b0: 0361 dd3c 275f 0c3d f02a 0b3e 0354 08bb
000002c0: ae67 403e b40a 6dbc 42b9 89bd 388c 27bd
000002d0: ec5e 8abd f9b5 383e 741e 6dbd c503 7c3e
000002e0: 5a65 09bd eec9 9dbd 8cf2 7f3b 9b53 a4bc
000002f0: 5fa9 ed3d 2f25 383c e1e2 ae3d 1148 86bd
00000300: d1a1 1a3c 1aaa 9ebd c750 98bc 450e 953d
00000310: d006 533c 6f46 063c 86a6 b9bc 68a7 9cbc
00000320: 7f7c 273d 4869 8d3c a215 793c 4767 333b
00000330: f96f 3abd 4e9b 3b3e 033c 3a3e 21be 7e3d
00000340: a3dc 0fbc 511b 81bb 65f7 883d 41f8 f83d
00000350: f74f 3ebc a8e6 c13d e7c3 2d3d ea9c 553e
00000360: c235 083e 0e84 9f3d f723 403b ddae cdbd
00000370: fb95 debc ca56 623d b97a 413e 84fa 2d3b
00000380: 1560 df3c 28ce 26bd 73e2 84bc b02b 0a3b
00000390: d4e3 87bd 19f0 b2bc df60 9fbd 8f42 fa3b
000003a0: 6b64 80bd f434 293d e70c 49bd 6d25 113c
000003b0: e5b2 763d 2b53 b0bd 65dd 84bc 39bd ab3c
000003c0: 445a 8a3d e622 14be ae05 9abd d9f1 18bd
000003d0: b2df 7cbc 2e20 87bc 7879 b43d 9584 0cbc
000003e0: 2cfc 973d 7635 f13d fa57 ae3e 6fda 083e
000003f0: 5a58 b5ba d940 73bd 2fa8 cf3d 6639 f33d
-0.009984313 -0.017986618 0.08483001 -0.16713914 -0.023335636 -0.069490924 0.04893785 0.070922896
0.2203034 0.098890424 -0.19204845 0.05423457 0.11723507 0.12203348 0.052680396 0.09526136
0.14835341 -0.12880827 0.09513319 0.057071112 -0.06817285 -0.0100616235 0.09904245 -0.0036719218
-0.042515427 0.059513655 -0.04264918 -0.02892889 -0.07779247 -0.016408984 -0.04233975 -0.04702639
0.17805803 -0.0932629 -0.00022695538 0.023133283 -0.17418596 -0.0004631294 -0.117998764 -0.064534016
0.22122186 -0.083280966 0.060588446 -0.12287136 -0.18488604 -0.016530102 -0.020233138 0.35893494
-0.07536842 0.16032574 0.1301064 -0.17495812 -0.11603682 0.07210961 -0.04126116 0.11846252
0.09608412 -0.03037754 -0.2679032 -0.028059643 0.030142263 0.016188832 0.007332147 0.031391796
0.17349482 -0.12366651 0.015841423 -0.071166486 0.19082424 0.07172347 0.088412255 -0.00919729
0.014959179 -0.0848052 -0.02122263 0.23098554 -0.03462073 0.046431504 -0.029249677 -0.05336313
-0.11456079 0.089982525 0.16203782 -0.16059145 -0.15341896 0.027144952 -0.13705778 -0.11617587
-0.021170443 -0.045265153 0.01016616 -0.061793927 -0.054335285 0.16407427 -0.027511172 -0.11250338
-0.04083534 0.050891113 0.041726504 0.023898635 0.10786429 0.057689305 0.19570489 0.10856526
-0.01457674 0.20880395 0.1083733 -0.00060298346 0.026385112 0.026856305 0.13979492 0.02218524
0.05226389 0.18664959 0.30444005 -0.066827625 0.044574574 -0.056146584 -0.016630735 -0.079698674
-0.13997951 0.031139772 -0.16041155 -0.1043366 0.12064146 -0.06876049 -0.19670057 -0.0054108556
0.0826995 -0.0730381 -0.13409448 0.0012918084 0.060450483 -0.06420605 0.10665463 0.008350826
-0.12561794 -0.14876251 -0.10636456 0.04182211 -0.049682353 0.10510195 0.015454745 -0.1084182
-0.045137193 -0.14831805 -0.121458784 0.1742276 -0.09259827 -0.056694187 -0.015814992 0.07437789
0.052145563 -0.040938728 -0.14983283 -0.07301512 -0.0863141 0.0041673332 -0.0072464687 -0.1456184
-0.12512991 -0.16554953 -0.07214739 -0.052701116 0.05928494 -0.05321648 -0.07969537 0.04240044
0.014150842 0.08842229 0.002119366 0.038783077 0.027023798 0.03427043 0.13590598 -0.0020802028
0.1878955 -0.014467884 -0.06724788 -0.040905207 -0.06756386 0.18038167 -0.05789037 0.24610813
-0.033543922 -0.07704531 0.0039054481 -0.020059397 0.116045706 0.011239334 0.085393675 -0.06556714
0.009437994 -0.07747288 -0.018593205 0.07278112 0.012880042 0.008195504 -0.022662412 -0.019122794
0.040890213 0.017262116 0.015202912 0.002737479 -0.04551694 0.18320963 0.18186955 0.06219304
-0.008780631 -0.003940024 0.06687812 0.12156726 -0.011615745 0.09467822 0.042423155 0.20860639
0.13301757 0.07788859 0.0029318312 -0.10043118 -0.027171126 0.05525855 0.18894471 0.0026547024
0.027267495 -0.04072395 -0.01622126 0.0021083169 -0.06635252 -0.021843003 -0.077821486 0.007637329
-0.06269153 0.041310266 -0.04908457 0.008859021 0.0602292 -0.08609613 -0.01621885 0.020964252
0.06755498 -0.14466438 -0.075206146 -0.03734002 -0.0154341925 -0.016494837 0.08812231 -0.008576532
0.07421145 0.11777775 0.34051496 0.13364576 -0.0013835535 -0.059388015 0.101395 0.11876182

classifier.1.bias f4 [10]
00000000: e933 993d 4360 1bbe 1139 e33e 4503 99bd
00000010: 750f b5be a71e 25be 00fc 1d3e f5da d23a
00000020: 045d 113e e342 e5bd
0.07480604 -0.1517344 0.44379476 -0.07471327 -0.35363355 -0.16124974 0.15428162 0.0016086983
0.14195639 -0.11194398
